trained_models/model_weights.pt (torch, 814363 bytes, 13 tensors)

lstm.weight_ih_l0 f4 [400, 1]
0.7945675 0.38538936 -0.18987985 0.18925609 0.7076295 -0.22775887 0.97274584 0.20986603
0.6993633 0.14411072 -0.046551637 -0.099373356 -0.3520988 0.3713792 0.8073788 0.041675407
-0.3822822 0.628353 0.44780353 0.57578784 0.41657522 0.36703008 0.23638065 0.37049526
0.70356095 0.2559851 0.92563605 0.28642812 -0.030347034 1.3578811 1.2823466 0.70842195
0.08687166 0.24525133 0.62213385 0.8812823 0.4512391 0.09557785 0.5463769 0.04666447
0.2501026 -0.12440497 0.28789577 -0.5548529 0.102534726 0.065706395 -0.30753747 0.6391838
0.10653795 0.23217039 0.10803545 0.9745076 -0.31634873 0.05674636 1.1601686 0.6609626
0.42811128 -0.117757894 0.42937347 0.85905445 1.1538885 0.7886779 0.026904633 -0.44867027
1.4066504 0.009249278 0.7302406 0.60818917 0.76896 -0.07846521 0.049764454 -0.09955172
1.1708956 0.22277041 0.67249936 0.1626146 -0.12950236 0.720751 0.949894 0.95471585
-0.04560187 0.39355484 0.02468073 -0.02507273 1.2508072 0.1318997 0.39433 0.7670174
0.43639687 0.0044949576 0.77552027 1.759236 0.35617718 1.3701807 0.051355723 0.31115896
0.7618054 0.61534524 0.014122055 -0.3055931 0.6479724 0.69959027 0.0024047364 -0.08701712
1.3499398 0.08183192 1.1777062 0.45018315 0.021871595 -0.0064446526 0.051412668 0.3103535
-0.1535294 0.14510211 0.25557986 0.04242764 -0.39130354 1.3121676 -0.09190312 0.562154
0.32954633 -0.25811973 0.57316655 0.18954562 -0.0041761333 -0.46940437 1.2837296 -0.26035488
0.32532844 1.6690874 0.98156697 0.7624948 -0.034761928 0.30726114 0.5362738 1.569554
0.49537325 0.11645511 0.22025642 0.1253264 0.09004256 -0.14207834 0.2079283 -0.10991288
0.63802445 0.120916925 0.20603883 -0.0092272 -0.15610349 0.45717293 -0.13859518 0.63636476
-0.010986458 0.30866167 0.45754275 0.5392387 0.11068579 0.08109003 0.18434414 -0.008456086
0.4741459 0.6908702 0.28962913 0.34958386 0.8154861 -0.79022825 1.726517 0.4433507
0.8792004 0.53337663 -0.102559984 -0.07098176 0.5796223 0.5352568 0.14628553 0.22235307
0.19139832 0.1436268 0.4142161 0.061128497 -0.13716461 0.42723468 0.61432034 -0.23258345
1.3416854 0.1191349 0.04779026 0.45172504 0.40909114 0.17668344 0.14176202 1.654128
0.08092544 0.6402623 0.5241077 0.51892406 0.70413977 -0.013985304 0.321773 -0.26628146
-0.45857683 -0.28479037 0.3365269 -0.25771683 0.46853247 -0.0026758518 -0.5131932 -0.3405216
-0.88825643 -0.07386568 -0.42830575 -0.23555495 -0.34656027 0.3247271 -0.7274128 -0.41055003
-0.29017287 0.44626483 -0.69732827 -0.3195182 0.35635602 0.5622031 -1.0813545 -0.4440813
0.37723708 0.16457926 -0.59819734 -0.45075172 1.1645851 0.19378541 -0.7897765 -0.527379
0.16704224 -0.10025321 0.27002528 -0.4256645 0.7394489 0.014093132 0.53903645 -0.34636748
0.79866743 0.21855952 0.25163618 -0.039258618 0.07785064 0.019851653 0.24055097 -0.031474862
0.0616336 0.42881775 0.266761 -0.6664656 0.0142608695 0.12056413 0.3607559 0.5171424
00000000: c768 4b3f c151 c53e dd6f 42be 59cc 413e
00000010: 3527 353f 9f39 69be df05 793f 1fe7 563e
00000020: 7909 333f c391 133e eeac 3ebd 4284 cbbd
00000030: 4b46 b4be 6a25 be3e 61b0 4e3f d5b3 2a3d
00000040: 7eba c3be bedb 203f 8146 e53e d566 133f
00000050: 5949 d53e 5eeb bb3e c50d 723e 8eb1 bd3e
00000060: 921c 343f 7b10 833e 7cf6 6c3f b5a6 923e
00000070: 589a f8bc 0ccf ad3f ef23 a43f 245b 353f
00000080: c5e9 b13d 2a23 7b3e 2a44 1f3f b89b 613f
00000090: d008 e73e 52be c33d 5bdf 0b3f 3e23 3f3d
000000a0: 730d 803e 08c8 febd 1367 933e d70a 0ebf
000000b0: bafd d13d 1391 863d 8d75 9dbe 8da1 233f
000000c0: 9230 da3d 13be 6d3e b141 dd3d 5479 793f
000000d0: 76f8 a1be df6e 683d 6880 943f d834 293f
000000e0: 6731 db3e 0d2b f1bd d7d6 db3e feea 5b3f
000000f0: 9eb2 933f cbe6 493f 1b67 dc3c 1cb8 e5be
00000100: 1f0d b43f 498a 173c 0cf1 3a3f 49b2 1b3f
00000110: 90da 443f 5eb2 a0bd d0d5 4b3d c6e1 cbbd
00000120: e8df 953f ed1d 643e eb28 2c3f 7184 263e
00000130: 449c 04be 2383 383f 412c 733f 4268 743f
00000140: 07c9 3abd 0580 c93e 3e2f ca3c 5365 cdbc
00000150: 731a a03f b710 073e 9fe5 c93e 415b 443f
00000160: 696f df3e 704a 933b 7f88 463f a52e e13f
00000170: db5c b63e 1562 af3f 615a 523d 3a50 9f3e
00000180: ae05 433f 4487 1d3f 3160 673c b376 9cbe
00000190: 85e1 253f 5918 333f c898 1d3b 0836 b2bd
000001a0: d4ca ac3f 7e97 a73d 14bf 963f 687e e63e
000001b0: 0f2c b33c aa2d d3bb 1796 523d a7e6 9e3e
000001c0: d036 1dbe a695 143e 5ddb 823e 9bc8 2d3d
000001d0: f058 c8be 1cf5 a73f b437 bcbd 53e9 0f3f
000001e0: 4cba a83e 4528 84be 0bbb 123f 3f18 423e
000001f0: f2d7 88bb c555 f0be 4051 a43f 3c4d 85be
00000200: 7391 a63e a8a4 d53f f947 7b3f dc32 433f
00000210: 8662 0ebd 5551 9d3e 3d49 093f 25e7 c83f
00000220: 90a1 fd3e 0480 ee3d e68a 613e 9055 003e
00000230: 3c68 b83d fc7c 11be 28eb 543e 011a e1bd
00000240: 9255 233f 4ba3 f73d d8fb 523e af2d 17bc
00000250: 98d9 1fbe 9212 ea3e e5eb 0dbe cde8 223f
00000260: 8b00 34bc e708 9e3e 0b43 ea3e 8c0b 0a3f
00000270: 3baf e23d 8812 a63d b6c4 3c3e 658b 0abc
00000280: 40c3 f23e dfdc 303f 454a 943e a8fc b23e
00000290: b2c3 503f 664c 4abf 82fe dc3f ddfe e23e
000002a0: 4713 613f 5f8b 083f f80a d2bd e35e 91bd
000002b0: 2162 143f 9706 093f e0cb 153e 86b0 633e
000002c0: ecfd 433e e712 133e 2214 d43e e061 7a3d
000002d0: e174 0cbe 81be da3e 1944 1d3f 5b2a 6ebe
000002e0: 59bc ab3f 00fd f33d b8bf 433d 8148 e73e
000002f0: 6574 d13e 81ec 343e 102a 113e 77ba d33f
00000300: 3dbc a53d 3be8 233f ec2b 063f 35d8 043f
00000310: 8142 343f 9e22 65bc 6ebf a43e 0b56 88be
00000320: 95ca eabe 0bd0 91be 414d ac3e 76f3 83be
00000330: 7de3 ef3e 585d 2fbb a160 03bf d958 aebe
00000340: c664 63bf e446 97bd e44a dbbe 5135 71be
00000350: 5970 b1be a142 a63e ba37 3abf 9d33 d2be
00000360: 8a91 94be d37c e43e 1b84 32bf e497 a3be
00000370: 4c74 b63e 8bec 0f3f d369 8abf a05e e3be
00000380: 3825 c13e 7787 283e 7623 19bf eec8 e6be
00000390: 2011 953f af6f 463e cb2e 4abf 4f02 07bf
000003a0: 1f0d 2b3e 8e51 cdbd c140 8a3e b3f0 d9be
000003b0: 864c 3d3f e1e6 663c 4bfe 093f 1457 b1be
000003c0: 7875 4c3f 11ce 5f3e 75d6 803e a5cd 20bd
000003d0: 2870 9f3d ef9f a23c fe52 763e c9eb 00bd
000003e0: 8473 7c3d 008e db3e e694 883e 7d9d 2abf
000003f0: 6ca6 693c 54ea f63d ffb4 b83e 7263 043f

lstm.weight_hh_l0 f4 [400, 100]
-0.3220479 0.12271957 -0.15475826 -0.29873884 -0.30357513 -0.22950011 -0.0892437 -0.37924254
0.26640785 -0.043861225 0.04292306 0.026962213 -0.23581912 -0.024009226 -0.32677704 -0.12340981
0.6010039 0.023908373 -0.09522513 -0.2133985 -0.43359295 0.11565972 0.25031522 0.20647654
0.53840744 -0.04395443 0.032670915 0.016321383 -0.21574596 0.45760262 0.04795024 0.0062620426
-0.17348921 -0.37459537 0.38722724 -0.426164 0.024363626 -0.07634422 0.15878463 -0.44270998
0.14998123 -0.30394354 0.020787667 0.30326125 0.24735625 -0.45044875 -0.014616535 -0.51047915
0.28387445 0.20645767 -0.37180868 -0.4672384 -0.4220079 -0.3214473 0.030554255 -0.03213053
0.4714656 0.21752466 -0.038674485 -0.014047958 -0.28292623 0.027818844 -0.14019717 0.113051794
-0.016502775 -0.3890602 0.6821947 -0.03776916 0.48007667 -0.39294016 -0.23361629 0.21829012
-0.4762455 0.1431942 0.28616956 -0.002710849 0.40388578 -0.07913332 -0.33062088 0.09446893
-0.48599225 0.20383811 0.37122062 0.19156158 0.24178384 0.11100867 -0.28215593 0.17307262
0.094917536 -0.15356149 -0.32562035 -0.2546931 0.33871156 0.036974244 -0.21072587 0.11608847
-0.27783874 -0.2860109 0.51008624 0.30603766 -0.32293233 -0.1856242 0.035535928 0.5953287
-0.037546147 -0.25017813 -0.4868832 -0.20684613 -0.48509413 -0.1292131 -0.08918257 -0.16070578
-0.16922517 0.011385 -0.120755866 -0.0850458 -0.18341172 -0.023027852 -0.32810137 0.20955709
0.53146964 0.2523874 -0.27255222 -0.28164434 -0.009660306 -0.06898647 -0.11758284 0.053883288
0.18359932 -0.17688765 -0.110919945 -0.38145262 0.24571589 0.11047295 -0.07125254 0.14631937
0.32893312 -0.1699548 -0.13017856 -0.12709427 0.27715182 -0.18832983 0.05684347 -0.20720233
-0.39783213 0.857089 -0.2585187 0.2179506 -0.11061813 -0.22909312 -0.037909385 0.18893106
-0.025810735 0.3196862 0.19183582 -0.040399604 0.1970053 0.26054546 0.13839017 0.058651686
-0.27768564 0.40789434 0.09159318 -0.14213906 -0.2368189 -0.056625035 0.12419656 0.08657811
0.03524022 0.116192244 -0.06864912 -0.16004889 -0.83300817 -0.27903053 -0.067248896 -0.3248671
-0.30166754 -0.11737445 0.15255366 -0.1638448 0.2786045 0.1288093 -0.23487131 0.19629477
0.02603189 0.17151146 0.18839225 -0.16106027 -0.3366984 -0.04466347 0.034939177 -0.07590958
0.5602025 0.11751274 0.18724982 0.34205186 0.13793322 -0.05975103 0.051328834 -0.15945183
-0.30031693 -0.29828373 -0.098498106 -0.26677972 0.24892294 0.4297315 -0.14585117 -0.5329882
-0.07257102 0.06351425 -0.34761444 -0.31541306 -0.17453922 0.65621203 -0.41248783 0.36520725
0.5509602 0.044411924 -0.26156625 -0.25493985 0.09958568 0.67380553 -0.13346893 -0.7429822
0.13139106 0.20147198 -0.3123585 -0.02155284 0.12960933 -0.12843208 0.36818528 -0.31033617
-0.0036752385 -0.14068227 0.08053262 -0.24604812 -0.1336034 -0.031318035 0.033206314 -0.63751245
0.01969955 -0.14983658 -0.0754814 0.5568088 -0.541707 -0.7762268 0.36958867 -0.43626332
0.52290916 -0.38959628 -0.33674142 -0.26283574 0.047923677 -0.50306374 0.71691805 -0.11447576
00000000: 76e3 a4be 6654 fb3d f378 1ebe 4cf4 98be
00000010: 336e 9bbe 1402 6bbe 67c5 b6bd 142c c2be
00000020: 9c66 883e d4a7 33bd 17d0 2f3d dcdf dc3c
00000030: 917a 71be ffae c4bc 524f a7be 48be fcbd
00000040: 64db 193f 7edb c33c 6505 c3bd 2385 5abe
00000050: e5ff ddbe 01df ec3d 5129 803e 966e 533e
00000060: 12d5 093f 8f09 34bd f0d1 053d 6cb4 853c
00000070: 82ec 5cbe e44a ea3e 7967 443d d231 cd3b
00000080: 28a7 31be f7ca bfbe a642 c63e 2b32 dabe
00000090: 3a96 c73c 5c5a 9cbd 7098 223e e2aa e2be
000000a0: ae94 193e 7d9e 9bbe e64a aa3c 0f45 9b3e
000000b0: f54a 7d3e 38a1 e6be 317a 6fbc c3ae 02bf
000000c0: fe57 913e a469 533e b55d bebe df39 efbe
000000d0: 6b11 d8be be94 a4be eb4c fa3c 4d9b 03bd
000000e0: f063 f13e c9be 5e3e 2369 1ebd 6829 66bc
000000f0: b5db 90be 58e4 e33c d98f 0fbe b387 e73d
00000100: d430 87bc e632 c7be 50a4 2e3f d6b3 1abd
00000110: 9ccc f53e 742f c9be 1c39 6fbe 7287 5f3e
00000120: 73d6 f3be 80a1 123e d184 923e 80a8 31bb
00000130: 1eca ce3e a610 a2bd 2447 a9be ed78 c13d
00000140: fad3 f8be f0ba 503e a110 be3e b828 443e
00000150: 2f96 773e 8358 e33d be76 90be f339 313e
00000160: 2064 c23d 393f 1dbe b6b7 a6be 2267 82be
00000170: 9a6b ad3e 4e72 173d 86c8 57be cbbf ed3d
00000180: e140 8ebe 0570 92be 0395 023f f8b0 9c3e
00000190: 6357 a5be 4514 3ebe 1f8e 113d 7667 183f
000001a0: fdc9 19bd 5917 80be c148 f9be 79cf 53be
000001b0: 425e f8be 7050 04be 5aa5 b6bd 0e90 24be
000001c0: 5d49 2dbe 2788 3a3c da4e f7bd 7e2c aebd
000001d0: 48d0 3bbe e8a4 bcbc e7fc a7be 2296 563e
000001e0: 650e 083f ec38 813e f78b 8bbe b033 90be
000001f0: 4346 1ebc c748 8dbd 46cf f0bd b9b4 5c3d
00000200: 7601 3c3e 0922 35be ff29 e3bd c24d c3be
00000210: f29c 7b3e a43f e23d daec 91bd bfd4 153e
00000220: ec69 a83e a208 2ebe 874d 05be 0025 02be
00000230: d8e6 8d3e 89d9 40be b3d4 683d d92c 54be
00000240: a7b0 cbbe 2f6a 5b3f 905c 84be 712e 5f3e
00000250: c28b e2bd 6397 6abe df46 1bbd 2577 413e
00000260: 0971 d3bc e9ad a33e 9c70 443e 0e7a 25bd
00000270: c2bb 493e 3766 853e 27b6 0d3e c03c 703d
00000280: d02c 8ebe 87d7 d03e 3595 bb3d e78c 11be
00000290: a780 72be a7ef 67bd c45a fe3d dd4f b13d
000002a0: 0d58 103d 33f6 ed3d e997 8cbd dbe3 23be
000002b0: 0640 55bf 17dd 8ebe cab9 89bd fb54 a6be
000002c0: 2b74 9abe 0462 f0bd 0737 1c3e eec6 27be
000002d0: 40a5 8e3e 96e6 033e 1b82 70be 7f01 493e
000002e0: d540 d53c b3a0 2f3e e6e9 403e fcec 24be
000002f0: bc63 acbe 0bf1 36bd 621c 0f3d 7b76 9bbd
00000300: 6e69 0f3f 85aa f03d 6bbe 3f3e 6c21 af3e
00000310: 5e3e 0d3e 7fbd 74bd 2f3e 523d 5747 23be
00000320: 24c3 99be a5b8 98be 60b9 c9bd 5a97 88be
00000330: a8e5 7e3e c405 dc3e 025a 15be ea71 08bf
00000340: 1da0 94bd c213 823d 85fa b1be d27d a1be
00000350: 69ba 32be 83fd 273f 9b31 d3be 72fc ba3e
00000360: ba0b 0d3f 47e9 353d 03ec 85be 7a87 82be
00000370: 94f3 cb3d 857e 2c3f 14ac 08be 1534 3ebf
00000380: 618b 063e ac4e 4e3e 74ed 9fbe 958f b0bc
00000390: 4fb8 043e b383 03be c882 bc3e 62e4 9ebe
000003a0: 45dc 70bb 030f 10be 49ee a43d 0af4 7bbe
000003b0: 54cf 08be 5747 00bd 5803 083d 0434 23bf
000003c0: f360 a13c c36e 19be fe95 9abd 068b 0e3f
000003d0: 4fad 0abf cdb6 46bf ba3a bd3e e85d dfbe
000003e0: 60dd 053f 2a79 c7be 5f69 acbe 6892 86be
000003f0: 9e4b 443d c9c8 00bf f187 373f 4472 eabd

lstm.bias_ih_l0 f4 [400]
0.025378795 0.33084783 -0.26422837 -0.03362491 -0.063959286 -0.39839584 -0.028858561 0.3229956
0.40853083 0.2274788 0.52840364 0.71624243 0.07036016 -0.2508605 0.98450047 -0.58540785
0.27447367 -0.37999067 0.21988557 -0.45371488 0.43233368 0.41246977 0.5303521 0.33170137
0.30413026 0.6158565 -0.3279444 0.4394081 0.14331855 -0.5913675 -0.15135176 0.12075579
0.14189017 0.021934057 -0.013076562 -0.2847375 0.5987759 0.8421717 -0.054150846 0.31740168
0.28465632 0.10688233 0.0034298187 0.5524668 -0.3457323 -0.21466058 0.038558375 0.2832665
0.04152053 0.3033691 0.56633633 -0.32743242 -0.20445484 -0.10484956 0.21599351 0.53039706
-0.39805794 0.03398742 -0.11773638 0.013111717 0.16829735 0.5429412 0.44272527 0.052473366
0.7678486 0.24560754 -0.41443855 0.39791894 -0.1832904 -0.34377483 0.3721681 0.3783176
0.93860596 0.39436835 0.073597565 0.07781419 -0.2756366 0.22195484 -0.268343 -0.16281275
0.60530347 0.06633855 -0.41255474 -0.08270052 -0.17487942 -0.02173305 0.5868757 0.74053454
-0.40082246 0.33426234 0.35069647 -0.07079008 0.28381008 -0.1060287 0.24967858 -0.38433552
0.08186568 0.50543344 0.4082315 0.59670454 0.010880675 0.5294293 -0.16820714 -0.067904085
0.38917163 -0.22997637 0.24019612 0.46706045 0.067018755 0.31190386 0.33629882 0.50581306
0.27123767 -0.12363231 0.28473908 -0.63429964 0.2415518 0.067618124 -0.33139485 -0.27359527
0.45134088 -0.21784355 0.44750357 0.15772007 -0.31587005 0.17415099 -0.35694897 -0.06714253
0.06800513 -0.47681284 -0.24529892 0.06720414 -0.14771044 0.25043026 0.03168395 0.50238985
0.3513269 0.47519374 -0.22557789 0.1696631 -0.057181742 -0.21968815 0.06561522 0.3639353
0.21816751 0.09412924 0.17482586 -0.11667365 -0.2899711 0.3382658 0.22474201 -0.37359777
0.04897335 0.03308346 -0.42109472 0.2202008 -0.40627792 0.111606725 -0.42313036 -0.14594641
-0.30979863 0.38523176 0.56232953 0.8225355 0.17663297 0.30847523 0.20748651 0.17465477
0.051617876 0.010006892 0.21365082 0.21439083 0.30053923 0.45550588 0.009626574 0.20425242
0.14534235 -0.2215537 -0.35711437 -0.52760553 0.399536 0.02513556 0.016492007 -0.18194807
-0.016582543 0.09972531 0.15586287 -0.07702442 -0.02293899 0.32010293 0.11802407 -0.38975883
0.0144904135 -0.39527613 0.4329045 -0.16738221 0.13206051 -0.11921216 0.17669183 0.22175679
0.28269693 -0.38742796 0.09708026 -0.19198243 -0.3379361 -0.071698554 0.4241891 -0.41550803
0.19283836 -0.23516227 -0.681503 -0.80918086 0.08062043 0.1732639 0.37530115 0.06925246
0.40203398 0.22137728 0.32530996 0.09730919 -0.31922504 -0.60076463 -1.2644929 0.026796676
-0.1766576 -0.18558812 0.12373883 -0.014330316 0.97707564 0.29968274 -0.09141665 0.24546337
-0.026746893 -0.21734254 -0.13518149 -0.026643034 0.04919217 -0.53919905 0.026538316 -0.30303788
-0.18094046 -0.5583291 -0.3091341 0.5147629 0.2773318 0.3382624 0.3713762 -0.12171176
0.4413594 -0.20634584 -0.28477255 -0.10060057 0.34651953 -0.1675393 -0.08345862 0.16021253
00000000: 31e7 cf3c e364 a93e f148 87be 46ba 09bd
00000010: 16fd 82bd 8afa cbbe ca68 ecbc ae5f a53e
00000020: f42a d13e 34f0 683e 7645 073f aa5b 373f
00000030: fd18 903d ca70 80be 3908 7c3f 4add 15bf
00000040: d087 8c3e 238e c2be af29 613e 514d e8be
00000050: d75a dd3e 3d2f d33e 28c5 073f c3d4 a93e
00000060: f6b6 9b3e c6a8 1d3f 54e8 a7be 19fa e03e
00000070: 19c2 123e dc63 17bf f5fb 1abe d04e f73d
00000080: a84b 113e 0daf b33c 143f 56bc 1dc9 91be
00000090: 6149 193f 9198 573f 47cd 5dbd 7982 a23e
000000a0: 79be 913e 1fe5 da3d cfc6 603b 776e 0d3f
000000b0: d303 b1be fccf 5bbe 63ef 1d3d 4f08 913e
000000c0: 6e11 2a3d 3253 9b3e 6bfb 103f 39a5 a7be
000000d0: 9c5c 51be 5ebb d6bd 672d 5d3e 1ac8 073f
000000e0: 40ce cbbe 6536 0b3d c51f f1bd 87d2 563c
000000f0: 2456 2c3e 32fe 0a3f e3ac e23e 50ee 563d
00000100: ba91 443f 8b80 7b3e 4a31 d4be 08bc cb3e
00000110: 7bb0 3bbe 4103 b0be d18c be3e d8b2 c13e
00000120: 7b48 703f a6ea c93e 52ba 963d 0c5d 9f3d
00000130: 3e20 8dbe 2148 633e 4164 89be 63b8 26be
00000140: 2bf5 1a3f 81dc 873d 603a d3be e45e a9bd
00000150: 9713 33be 8209 b2bc 7c3d 163f ac93 3d3f
00000160: 9a38 cdbe 6f24 ab3e 7d8e b33e 64fa 90bd
00000170: 8e4f 913e 9325 d9bd beab 7f3e a0c7 c4be
00000180: 32a9 a73d 1664 013f b803 d13e a1c1 183f
00000190: dc44 323c ae88 073f 7e3e 2cbe 4c11 8bbd
000001a0: 8141 c73e ed7e 6bbe f9f5 753e 8c22 ef3e
000001b0: 2141 893d ddb1 9f3e 5c2f ac3e f77c 013f
000001c0: aadf 8a3e f032 fdbd 52c9 913e 7661 22bf
000001d0: 5b59 773e 5f7b 8a3d 96ac a9be ae14 8cbe
000001e0: 2716 e73e 6112 5fbe 301f e53e 5f81 213e
000001f0: b8b9 a1be a354 323e 04c2 b6be 0682 89bd
00000200: 4646 8b3d d020 f4be a42f 7bbe 53a2 893d
00000210: 6841 17be 6538 803e 08c7 013d 9f9c 003f
00000220: 1fe1 b33e 984c f33e e4fd 66be 2abc 2d3e
00000230: 6737 6abd eef5 60be 4661 863d ba55 ba3e
00000240: 4e67 5f3e d5c6 c03d 8d05 333e 98f2 eebd
00000250: 1877 94be 2d31 ad3e c522 663e 3548 bfbe
00000260: 4898 483d 8682 073d ba99 d7be 527c 613e
00000270: a903 d0be 1192 e43d 8ba4 d8be fa72 15be
00000280: ed9d 9ebe 193d c53e d4f4 0f3f b091 523f
00000290: 46df 343e 77f0 9d3e 5877 543e b3d8 323e
000002a0: 446d 533d f2f3 233c 48c7 5a3e 4589 5b3e
000002b0: 47e0 993e 1138 e93e c7b8 1d3c 8c27 513e
000002c0: a0d4 143e f9de 62be b2d7 b6be 2811 07bf
000002d0: fc8f cc3e 17e9 cd3c 3f1a 873c 9850 3abe
000002e0: 1dd8 87bc c93c cc3d 849a 1f3e fbbe 9dbd
000002f0: 8cea bbbc 88e4 a33e 9bb6 f13d 788e c7be
00000300: 3369 6d3c a261 cabe a9a5 dd3e 3e66 2bbe
00000310: df3a 073e 8125 f4bd b4ee 343e 3614 633e
00000320: a7bd 903e f55c c6be 04d2 c63d 0b97 44be
00000330: f605 adbe b1d6 92bd 502f d93e 78bd d4be
00000340: 6b77 453e 61ce 70be fb76 2ebf 7a26 4fbf
00000350: 531c a53d 186c 313e 7927 c03e 3cd4 8d3d
00000360: 66d7 cd3e bab0 623e 078f a63e 0a4a c73d
00000370: 7771 a3be b6cb 19bf e7da a1bf b484 db3c
00000380: bbe5 34be d00a 3ebe c96a fd3d b4c9 6abc
00000390: a121 7a3f 0470 993e a738 bbbd c05a 7b3e
000003a0: 4d1c dbbc 0b8f 5ebe 046d 0abe 7e42 dabc
000003b0: bb7d 493d f308 0abf e266 d93c c827 9bbe
000003c0: 7548 39be a8ee 0ebf d346 9ebe 80c7 033f
000003d0: 6ffe 8d3e bb30 ad3e 0525 be3e 0444 f9bd
000003e0: dcf9 e13e 534c 53be b5cd 91be ac07 cebd
000003f0: 026b b13e 6c8f 2bbe 5aec aabd c10e 243e

lstm.bias_hh_l0 f4 [400]
0.1650949 0.4269483 -0.24895488 -0.13912214 -0.0116537465 -0.5635094 0.013136207 0.28423157
0.42916372 0.22651117 0.51701623 0.67075664 0.06495311 -0.30040213 0.9219146 -0.57031226
0.34886286 -0.41662157 0.2668235 -0.41562617 0.5069686 0.41723743 0.58585 0.35502726
0.16214608 0.64717895 -0.3707759 0.4170856 0.15387636 -0.60930955 -0.044686515 0.08322203
0.1371267 0.11374246 0.16225989 -0.18340637 0.5799211 0.7393086 -0.21460968 0.34659895
0.24051137 0.029096257 0.02654589 0.56061256 -0.25580782 -0.22915615 -0.03652401 0.40063035
0.020575361 0.31842944 0.6151383 -0.38865313 -0.07475677 -0.24882634 0.1398123 0.57467884
-0.48377803 0.03701078 -0.14345741 0.007537724 0.088956594 0.5106461 0.54324394 0.17416461
0.68079364 0.29114866 -0.48872095 0.39603367 -0.129809 -0.31535813 0.4018249 0.5018495
0.9000864 0.4012578 0.23866265 0.15468372 -0.31749895 0.24538745 -0.3867512 -0.18822598
0.5162271 0.13447945 -0.4345112 -0.074632704 -0.22762278 -0.012148656 0.57371026 0.7931278
-0.48590615 0.52020717 0.3996264 0.014935434 0.3125582 -0.047582224 0.26030734 -0.39414388
-0.05969389 0.4377093 0.40568382 0.46634865 0.007241362 0.59235823 -0.15085454 -0.11423292
0.43306383 -0.097837895 0.1356148 0.59389037 -0.06336583 0.43917233 0.26944998 0.5161264
0.10791856 -0.07646238 0.3722053 -0.47032517 0.28516272 0.08701063 -0.33897424 -0.3320942
0.36564973 -0.16811068 0.32181588 0.11954961 -0.29227838 0.069062114 -0.2858177 -0.24861741
0.024093628 -0.42112133 -0.13766313 0.1258156 -0.15698817 0.13108225 0.1590305 0.329431
0.44318005 0.58174515 -0.24132569 0.21391287 -0.030253863 -0.26055244 0.07095346 0.22844315
0.2933806 0.13863559 0.27266124 -0.23116057 -0.29327276 0.27409923 0.16141634 -0.39641047
0.01196113 0.01877056 -0.5685324 0.3864761 -0.43651873 0.17390788 -0.28865683 -0.07709504
-0.41669488 0.4068019 0.58037233 0.8801329 0.3338747 0.18684189 0.32358876 0.25102264
0.10854174 -0.10089552 0.25398922 0.19489683 0.33131108 0.5022936 0.06773044 0.21779226
0.23702219 -0.24087235 -0.3398386 -0.549244 0.3884729 0.034067024 0.16099395 -0.039154254
-0.086334094 0.22900777 0.013285942 -0.023512317 -0.094393216 0.48942277 0.058373805 -0.39409658
0.08399424 -0.46483895 0.34578803 -0.083704084 0.19785626 -0.22882268 0.34454003 0.30868483
0.36615938 -0.2040363 0.13593227 -0.21225068 -0.44900423 0.017834552 0.42054114 -0.5334416
0.17310177 -0.38754556 -0.605678 -0.7407295 0.21032561 0.21789663 0.39419937 0.0815864
0.34069481 0.21706899 0.38513967 -0.035523962 -0.34184465 -0.7516544 -1.2105324 0.14628729
-0.07480089 -0.14295955 0.01886719 0.04605938 1.0575691 0.40739447 -0.15733062 0.24710956
0.068109885 -0.37317073 -0.09901688 0.013079111 0.02747513 -0.5413431 0.07331751 -0.33724338
-0.28654772 -0.5585716 -0.28062204 0.39355338 0.20171198 0.21033551 0.29991043 -0.28081566
0.5275416 -0.22327127 -0.34661028 -0.15232198 0.330161 -0.19282575 0.07564338 0.12056004
00000000: a30e 293e f898 da3e 07ee 7ebe 0976 0ebe
00000010: 5bef 3ebc 2742 10bf 3f39 573c cd86 913e
00000020: 59bb db3e 8bf2 673e 2d5b 043f b5b6 2b3f
00000030: 2306 853d 4fce 99be 9802 6c3f fcff 11bf
00000040: 279e b23e 6c4f d5be 179d 883e f4cc d4be
00000050: b2c8 013f 25a0 d53e 44fa 153f 22c6 b53e
00000060: 9f09 263e 85ad 253f 57d6 bdbe 3e8c d53e
00000070: c491 1d3e b6fb 1bbf 3509 37bd 5070 aa3d
00000080: f16a 0c3e cff1 e83d 7527 263e e1ce 3bbe
00000090: b675 143f 5443 3d3f a4c2 5bbe 6b75 b13e
000000a0: 9d48 763e 465b ee3c c476 d93c 4e84 0f3f
000000b0: 3ef9 82be e9a7 6abe 339a 15bd 6c1f cd3e
000000c0: a98d a83c 2f09 a33e b479 1d3f 8bfd c6be
000000d0: 141a 99bd 55cc 7ebe f52a 0f3e 271e 133f
000000e0: c1b1 f7be 9e98 173d 80e6 12be 03ff f63b
000000f0: e02e b63d b4b9 023f 0912 0b3f 3558 323e
00000100: 7e48 2e3f 7011 953e a239 fabe edc4 ca3e
00000110: a7ec 04be 9f76 a1be febb cd3e 3579 003f
00000120: 106c 663f aa71 cd3e fb63 743e 6965 1e3e
00000130: 398f a2be d946 7b3e 4104 c6be 50be 40be
00000140: 7627 043f fbb4 093e 4178 debe 08d9 98bd
00000150: f215 69be 280b 47bc adde 123f 6c0a 4b3f
00000160: b1c8 f8be 4c2c 053f d59b cc3e c0b3 743c
00000170: a107 a03e 94e5 42bd 0147 853e 3acd c9be
00000180: 9581 74bd 6f1b e03e cab5 cf3e 40c5 ee3e
00000190: f248 ed3b caa4 173f 9d79 1abe f3f2 e9bd
000001a0: 8bba dd3e 3c5f c8bd 9bde 0a3e 3309 183f
000001b0: f2c5 81bd 32db e03e 59f5 893e dc20 043f
000001c0: 6804 dd3d 4f98 9cbd b191 be3e 76ce f0be
000001d0: d900 923e a132 b23d 088e adbe 4008 aabe
000001e0: 7136 bb3e 3525 2cbe 0dc5 a43e 6dd6 f43d
000001f0: 83a5 95be 7070 8d3d b356 92be 9095 7ebe
00000200: 0060 c53c 379d d7be 90f7 0cbe ced5 003e
00000210: 82c1 20be 6d3a 063e e4d8 223e 2eab a83e
00000220: 7fe8 e23e 40ed 143f 151e 77be fa0b 5b3e
00000230: f3d6 f7bc 2167 85be 0c50 913d 00ed 693e
00000240: fb35 963e 7df6 0d3e 419a 8b3e 5bb5 6cbe
00000250: d927 96be bc56 8c3e 534a 253e 50f6 cabe
00000260: 9ef8 433c b8c4 993c 578b 11bf 32e0 c53e
00000270: 627f dfbe e814 323e d4ca 93be 01e4 9dbd
00000280: 0859 d5be 5748 d03e 4893 143f 6450 613f
00000290: a0f1 aa3e 7b53 3f3e 6dad a53e 0a86 803e
000002a0: 224b de3d 4fa2 cebd e00a 823e 0993 473e
000002b0: 9ba1 a93e 5096 003f 42b6 8a3d ef04 5f3e
000002c0: f2b5 723e 3ea7 76be 53ff adbe 419b 0cbf
000002d0: ece5 c63e dd89 0b3d 99db 243e 3660 20bd
000002e0: eecf b0bd 0381 6a3e 48ad 593c e79c c0bc
000002f0: 3b51 c1bd 9f95 fa3e 5f19 6f3d 07c7 c9be
00000300: 2c05 ac3d 5fff edbe 210b b13e 0c6d abbd
00000310: d59a 4a3e 7e50 6abe 8d67 b03e f00b 9e3e
00000320: 3e79 bb3e e4ee 50be d431 0b3e 3e58 59be
00000330: e2e3 e5be c419 923c 2b51 d73e a18f 08bf
00000340: 9741 313e 5f6c c6be b70d 1bbf 73a0 3dbf
00000350: 995f 573e 4b20 5f3e 80d4 c93e c516 a73d
00000360: 8d6f ae3e 5547 5e3e 0731 c53e 9381 11bd
00000370: 4306 afbe 6c6c 40bf baf2 9abf 56cc 153e
00000380: 3631 99bd fd63 12be 5e8f 9a3c c3a8 3c3d
00000390: 6d5e 873f 0296 d03e 471b 21be 4a0a 7d3e
000003a0: 327d 8b3d 3c10 bfbe 5dc9 cabd c549 563c
000003b0: 8613 e13c 7695 0abf 7e27 963d 2aab acbe
000003c0: 62b6 92be 8cfe 0ebf b1ad 8fbe d47f c93e
000003d0: 968d 4e3e 3162 573e dc8d 993e 12c7 8fbe
000003e0: f70c 073f 39a1 64be e776 b1be 4bfa 1bbe
000003f0: dd0a a93e 1d74 45be ebea 9a3d 2fe8 f63d

lstm.weight_ih_l1 f4 [400, 100]
0.11379452 -0.7596903 0.055684272 0.49113348 -0.009281255 -0.82559013 0.44810006 0.4986323
0.26644495 0.42166442 -0.806591 0.44165337 0.8155455 0.16280155 -0.19559498 0.6819512
-0.5022675 0.754304 0.23779416 0.011641018 0.047218267 -0.41905165 -0.07161255 0.97539777
-0.59212935 0.122614175 -0.41348884 0.53513163 -0.04390615 0.24515997 0.025768813 0.29850557
0.122366816 0.5672336 0.5147613 -0.120082244 -0.5392996 -0.223649 0.06744925 0.31966043
-0.0061505586 -0.1538312 -0.07495058 -0.18258633 -0.06481133 -0.46586925 0.6605519 -0.40338573
-0.0851866 -0.8712819 -0.34564158 0.19236264 2.058102 0.059735708 0.67298704 -0.10210168
-0.5133183 -0.71253437 0.5110162 -0.11410322 0.3943093 0.14517306 0.4135749 0.24418384
-0.25483656 -1.266457 0.3456123 0.2304185 -0.8095262 -0.49409303 0.3343253 -0.7347912
0.4619691 0.49585804 -0.30814227 0.081559 0.9174399 0.15053703 -0.1200595 -0.29883257
-0.030819913 1.0841128 -0.65067995 -0.20978382 0.43216535 -1.1904302 -0.16716057 -0.37533242
-0.2743988 -0.9567117 -0.008335297 -0.11468684 -0.119422026 -0.04119436 0.28650808 1.0884857
0.35926032 -0.24212158 -0.18234664 0.35272804 -0.7552772 -0.5293586 -0.23435397 0.31767973
0.4546131 -0.32047683 -0.26788732 -0.11884862 -0.56212765 0.111801825 -0.26216486 -0.31001046
-0.28770435 -0.29707876 -0.42596006 -0.34827968 0.32017198 0.3349636 -0.755034 -0.1278252
0.18762642 -0.04830617 -0.24403402 -1.2197875 0.17303447 1.1605713 0.07326273 -0.98634475
0.32867894 -0.14542314 -0.42161933 -0.6479672 -0.61472875 0.6612521 0.3932091 -0.09009564
-0.10672232 -0.42795435 1.1735872 0.1529544 0.105063595 0.14781812 0.018255208 -0.5005145
0.39738953 -0.54935867 0.67809397 0.33832633 1.0897169 0.06465868 -0.110080004 -0.537405
-0.44318184 -0.17739668 0.5091023 0.9688414 -0.313618 -0.07550265 0.46351075 0.46457624
-0.7908126 -0.19348755 -0.64701885 -0.28104392 -1.0130087 0.11932157 -0.003818002 -0.13545366
0.63308924 1.0043133 0.4210666 0.5316806 -0.61578953 0.3246444 0.08408798 -0.33451968
0.81777346 0.13122998 0.76427156 0.6205522 0.6815048 0.78836703 0.6428621 0.6297715
0.7554754 0.14738606 0.23652399 -0.21383163 -0.2290916 0.39712965 -0.10042658 -0.64583266
0.3421079 0.09350699 0.20670809 -1.0754986 -0.32941186 -0.32367617 0.50628775 -0.28116867
-0.44964853 -0.82934546 0.28439355 0.022432141 -0.10274052 -0.1298622 0.12963565 -0.66925573
-0.041604113 -0.22845481 -0.57721347 0.28785977 -0.06884398 -0.12379307 -0.6387174 -0.14379048
-0.3680922 -0.30154273 -0.41883332 -0.14648521 -0.0030476958 0.4014681 -0.07977506 0.15364431
0.44287282 -0.36549827 0.0016129831 -0.22548857 0.12714012 0.33566818 -0.09855309 -0.21320467
-0.5604321 -0.16588208 0.27339777 0.20892152 -0.26912707 -0.15639728 0.39896458 -0.23036867
0.9229278 -0.022511292 1.0433444 0.66546756 -0.6460831 -0.11872161 0.9866165 -0.09856144
0.34576878 -0.36101162 -0.5273966 0.009375223 -0.024374872 0.1182273 -0.13148212 -0.3957889
00000000: 1a0d e93d 107b 42bf 3115 643d d975 fb3e
00000010: 6810 18bc e059 53bf 5f6d e53e bc4c ff3e
00000020: 796b 883e 66e4 d73e bf7c 4ebf 6420 e23e
00000030: 97c7 503f 73b5 263e 0d4a 48be 5b94 2e3f
00000040: 9a94 00bf 111a 413f 5080 733e f8b9 3e3c
00000050: f167 413d f08d d6be 9aa9 92bd abb3 793f
00000060: ca95 17bf 241d fb3d cfb4 d3be 63fe 083f
00000070: efd6 33bd 370b 7b3e 1e19 d33c b9d5 983e
00000080: 749b fa3d 3936 113f 66c7 033f aeed f5bd
00000090: 8a0f 0abf 3e04 65be d522 8a3d 88aa a33e
000000a0: a08a c9bb ed85 1dbe b17f 99bd e9f7 3abe
000000b0: cdbb 84bd 6a86 eebe ee19 293f 9388 cebe
000000c0: 5076 aebd 550c 5fbf eff7 b0be b6fa 443e
000000d0: f1b7 0340 6ead 743d e148 2c3f b01a d1bd
000000e0: d468 03bf a768 36bf f5d1 023f f3ae e9bd
000000f0: e9e2 c93e 3fa8 143e 17c0 d33e 540b 7a3e
00000100: f079 82be 431b a2bf 18f4 b03e d4f2 6b3e
00000110: 1c3d 4fbf c3f9 fcbe b02c ab3e 471b 3cbf
00000120: 3787 ec3e 1be1 fd3e d3c4 9dbe 6808 a73d
00000130: 57dd 6a3f 6126 1a3e c1e1 f5bd 9500 99be
00000140: 0b7a fcbc 35c4 8a3f f692 26bf 92d1 56be
00000150: c744 dd3e 0460 98bf 242c 2bbe 922b c0be
00000160: 007e 8cbe 0feb 74bf c590 08bc efe0 eabd
00000170: 8993 f4bd 6bbb 28bd 30b1 923e 8053 8b3f
00000180: f8f0 b73e b8ee 77be 14b9 3abe c598 b43e
00000190: d959 41bf 0c84 07bf 7dfa 6fbe eba6 a23e
000001a0: 0cc3 e83e 8a15 a4be 8728 89be e866 f3bd
000001b0: 99e7 0fbf 5bf8 e43d 793a 86be b1b9 9ebe
000001c0: fc4d 93be b51a 98be 7017 dabe b751 b2be
000001d0: 95ed a33e 5980 ab3e e949 41bf 9ce4 02be
000001e0: 2421 403e b1dc 45bd 0ee4 79be ff21 9cbf
000001f0: f32f 313e 9a8d 943f c50a 963d 1781 7cbf
00000200: 9b48 a83e cee9 14be 7dde d7be 2ee1 25bf
00000210: dd5e 1dbf d147 293f b452 c93e 1084 b8bd
00000220: 3b91 dabd d51c dbbe 1b38 963f 14a0 1c3e
00000230: 952b d73d a25d 173e f28b 953c b821 00bf
00000240: a476 cb3e c5a2 0cbf 9197 2d3f 1c39 ad3e
00000250: d87b 8b3f c56b 843d a071 e1bd 6093 09bf
00000260: bbe8 e2be 7aa7 35be 8754 023f fd05 783f
00000270: 8a92 a0be 22a1 9abd 4851 ed3e f0dc ed3e
00000280: b272 4abf 9a21 46be 07a3 25bf fde4 8fbe
00000290: 45aa 81bf de5e f43d 7237 7abb 5db4 0abe
000002a0: 2312 223f 578d 803f 0b96 d73e 381c 083f
000002b0: 62a4 1dbf ca37 a63e 5236 ac3d 2a46 abbe
000002c0: 9a59 513f 2761 063e 4da7 433f 82dc 1e3f
000002d0: 1977 2e3f 6cd2 493f 9c92 243f b438 213f
000002e0: d666 413f 5fec 163e 5833 723e aef6 5abe
000002f0: fd96 6abe 9454 cb3e 73ac cdbd 4a55 25bf
00000300: c428 af3e 9880 bf3d 49ab 533e f0a9 89bf
00000310: aca8 a8be e2b8 a5be 139c 013f 57f5 8fbe
00000320: 5538 e6be fc4f 54bf 089c 913e 9cc3 b73c
00000330: 9f69 d2bd 99fa 04be 35bf 043e 5854 2bbf
00000340: 1369 2abd 0ff0 69be 43c4 13bf 5b62 933e
00000350: 13fe 8cbd 3987 fdbd fc82 23bf d03d 13be
00000360: 9576 bcbe cf63 9abe 5271 d6be 3800 16be
00000370: dabb 47bb 3a8d cd3e 1b61 a3bd ef54 1d3e
00000380: 3ac0 e23e 9722 bbbe bb6a d33a 7ae6 66be
00000390: 0531 023e b3dc ab3e 34d6 c9bd 5352 5abe
000003a0: 7a78 0fbf fedc 29be cbfa 8b3e 86ef 553e
000003b0: 06cb 89be 9c26 20be 1645 cc3e c4e5 6bbe
000003c0: ff44 6c3f 9a69 b8bc 4f8c 853f 155c 2a3f
000003d0: b465 25bf 5124 f3bd e692 7c3f 95da c9bd
000003e0: 9b08 b13e 84d6 b8be 7703 07bf 899a 193c
000003f0: d0ad c7bc 2821 f23d 40a3 06be d8a4 cabe

lstm.weight_hh_l1 f4 [400, 100]
0.22912256 0.25889802 0.44898233 -0.26709104 -0.19798389 -0.5415432 -0.031168383 0.0645256
-0.7288508 -0.46074343 0.12510735 0.21658884 -0.32228988 0.72093767 -0.08533073 -0.034986965
-0.16474621 0.48334172 -0.34723523 0.1734999 1.4444556 0.28475136 0.037654594 0.0067116325
-0.1159338 -0.32852352 0.47167665 0.17895173 -0.5122803 -0.1802719 0.045792818 -1.0747179
-0.16079105 0.62192637 0.008104353 0.22642145 -0.38243222 0.05246566 0.05508928 -0.36378798
0.12958384 0.88498324 0.74281126 -0.096843146 -0.6836442 -0.42351568 0.6218448 -0.1385738
0.48627996 -1.2424251 0.1036563 0.66555065 0.0483349 0.056157157 0.04491376 0.03183507
-0.40278932 -0.58686054 -0.30334944 0.101463065 -0.7157278 0.36608312 0.24515463 0.30527478
0.10538466 0.32116374 -0.2682446 -0.17586455 -0.23232444 0.16844778 -0.10195888 -0.37979257
0.6603714 0.094805546 0.20303725 0.123782225 -0.42516798 -0.29365796 -0.07549164 -0.05404149
0.70520943 -0.12728466 0.09612124 -0.5186479 -1.2344494 -0.11478964 0.103131 0.3360587
-0.15348059 0.57413745 0.40841734 0.15057547 -0.38105318 0.53282744 -0.15813722 0.25219417
-0.2105237 0.6379112 -0.40686855 0.5115046 0.19380617 0.52579874 -0.6217302 -0.21870041
0.49140993 0.52602166 0.2975344 0.6145558 -0.22307442 -0.17490196 0.02600084 0.24219643
0.78792125 -0.77241397 -0.34260255 -0.18120362 -0.006062952 0.3912408 0.453479 -0.18222451
0.09761229 0.4814325 -0.34265298 0.27807656 0.29799306 0.7042399 -0.14927734 0.41922048
0.2793461 0.40600652 0.09668873 0.029539715 -0.066706605 -1.3464133 -0.31887826 -0.2707449
-1.303172 -0.07212547 0.29667154 -1.0372365 -0.0561143 0.09566478 -0.12062257 0.13935256
0.060932674 0.4262725 0.084206216 0.538548 -0.29586703 -0.44098383 0.2862246 -0.15330374
0.33779263 0.17062162 0.0083262855 0.23845205 -0.079960585 -0.6241607 -0.5087317 0.036758
-0.09858755 0.60191053 -0.19582582 0.27245322 0.011760922 -0.3837762 -0.3507242 -0.51367223
0.32048753 -0.5225964 -0.16612053 0.4112395 0.76215345 -0.44755626 -0.18211576 -0.39939678
-0.9790455 0.25202337 0.026061472 -0.51845163 -0.1096747 -0.14942215 0.47001958 -0.11482805
0.12098487 0.16836828 -0.61350125 0.66148216 0.9946129 0.22079574 -0.24016528 0.35228178
-1.1886903 0.030768381 -0.4650428 0.004628823 -0.101042695 -0.2616507 -0.046317305 -0.117266536
-0.05788287 0.5082643 -0.3511361 -0.1343071 -0.661531 0.47823942 0.30132148 0.21333942
0.028705949 -0.124071844 0.0608637 0.14794375 -0.36591446 -0.093326055 -0.32099614 0.19022267
-0.3717347 -0.7302151 0.3334338 -0.47357598 0.077844605 -0.461371 -0.37850246 0.067813374
-0.25018847 0.07302137 -0.17587046 -0.026548322 0.0338669 -0.16393922 -0.38698784 0.4299614
0.57526416 0.013025521 0.051541742 -0.21693394 0.35861072 -0.4636872 -0.21105261 -0.9685195
0.20582527 0.42485425 -0.23288426 0.48659462 0.15266785 0.1691282 0.2597053 0.35640484
0.021971455 -0.31166682 -0.011807838 -0.0002935048 0.045887645 -0.27892745 -0.37364733 0.7559611
00000000: 1b9f 6a3e 488e 843e 03e1 e53e 28c0 88be
00000010: 4abc 4abe 93a2 0abf d654 ffbc ff25 843d
00000020: f795 3abf 90e6 ebbe 241c 003e 77c9 5d3e
00000030: 2e03 a5be 5f8f 383f e1c1 aebd 7e4e 0fbd
00000040: 3bb3 28be 9178 f73e d1c8 b1be f5a9 313e
00000050: ece3 b83f eeca 913e b43b 1a3d 41ed db3b
00000060: b36e edbd 3c34 a8be 9a7f f13e 1f3f 373e
00000070: cd24 03bf 3299 38be 4091 3b3d 5b90 89bf
00000080: 69a6 24be 9136 1f3f 1fc8 043c 06db 673e
00000090: 28ce c3be 3be6 563d 4ca5 613d 6b42 babe
000000a0: a0b1 043e 438e 623f e128 3e3f b355 c6bd
000000b0: 4e03 2fbf 0cd7 d8be 3931 1f3f 4ae6 0dbe
000000c0: b0f9 f83e c907 9fbf c149 d43d 8761 2a3f
000000d0: d1fa 453d 0c05 663d 7ef7 373d 7e65 023d
000000e0: 673a cebe 7e3c 16bf 9e50 9bbe decb cf3d
000000f0: f039 37bf 3f6f bb3e d109 7b3e fa4c 9c3e
00000100: ead3 d73d 936f a43e 5b57 89be d615 34be
00000110: 75e6 6dbe 937d 2c3e d1cf d0bd 2c74 c2be
00000120: 1a0e 293f 6929 c23d ffe8 4f3e 8981 fd3d
00000130: 9eaf d9be 565a 96be 5c9b 9abd 9c5a 5dbd
00000140: 9b88 343f e956 02be 36db c43d 1cc6 04bf
00000150: 7002 9ebf d516 ebbd 5936 d33d e30f ac3e
00000160: 042a 1dbe acfa 123f 141c d13e 7530 1a3e
00000170: 6719 c3be 6167 083f b9ee 21be 981f 813e
00000180: 8693 57be 264e 233f 1351 d0be f7f1 023f
00000190: 2075 463e bf9a 063f b629 1fbf 00f3 5fbe
000001a0: 159a fb3e 5ba9 063f 6e56 983e 8753 1d3f
000001b0: 9f6d 64be 8019 33be b7ff d43c 5702 783e
000001c0: 35b5 493f ecbc 45bf 9a69 afbe 718d 39be
000001d0: baab c6bb b750 c83e 662e e83e 1099 3abe
000001e0: f4e8 c73d 527e f63e 3670 afbe 0d60 8e3e
000001f0: 8c92 983e 1149 343f 29dc 18be 11a4 d63e
00000200: 7406 8f3e 16e0 cf3e be04 c63d 46fd f13c
00000210: 799d 88bd 4557 acbf 0344 a3be 139f 8abe
00000220: 57ce a6bf 85b6 93bd 55e5 973e 2ac4 84bf
00000230: 1cd8 65bd e5eb c33d f708 f7bd 70b2 0e3e
00000240: 8a94 793d 6440 da3e 4f74 ac3d 48de 093f
00000250: e27b 97be a2c8 e1be 088c 923e a8fb 1cbe
00000260: 28f3 ac3e 6fb7 2e3e f96a 083c c62c 743e
00000270: 60c2 a3bd ffc8 1fbf 3e3c 02bf 8e8f 163d
00000280: 45e8 c9bd cf16 1a3f 9086 48be fd7e 8b3e
00000290: e2b0 403c 507e c4be 1f92 b3be 0680 03bf
000002a0: f116 a43e e1c8 05bf 801b 2abe fc8d d23e
000002b0: 7d1c 433f 1826 e5be 8e7c 3abe bc7d ccbe
000002c0: baa2 7abf 3509 813e de7e d53c 3fb9 04bf
000002d0: 219d e0bd 1f02 19be 68a6 f03e f82a ebbd
000002e0: eac6 f73d bc68 2c3e 6b0e 1dbf e556 293f
000002f0: f39e 7e3f 4718 623e e3ed 75be 475e b43e
00000300: 0127 98bf f90d fc3c 171a eebe 62ad 973b
00000310: 79ef cebd 15f7 85be 37b7 3dbd 7029 f0bd
00000320: 9716 6dbd 9c1d 023f 1cc8 b3be cd87 09be
00000330: 185a 29bf ccdb f43e cf46 9a3e a675 5a3e
00000340: bd28 eb3c 6119 febd 374c 793d 917e 173e
00000350: 2459 bbbe bb21 bfbd 9b59 a4be bbc9 423e
00000360: 0354 bebe 60ef 3abf d6b7 aa3e 8d78 f2be
00000370: fe6c 9f3d d238 ecbe 13cb c1be bde1 8a3d
00000380: b418 80be 3a8c 953d 6317 34be de7b d9bc
00000390: 05b8 0a3d afdf 27be 4523 c6be e723 dc3e
000003a0: 8344 133f ff68 553c 6f1d 533d ee23 5ebe
000003b0: d39b b73e 6968 edbe 2d1e 58be e5f0 77bf
000003c0: dcc3 523e 7f86 d93e 3679 6ebe ee22 f93e
000003d0: f654 1c3e f12f 2d3e 18f8 843e b27a b63e
000003e0: 7bfd b33c cb92 9fbe aa75 41bc 8ce1 99b9
000003f0: aff4 3b3d 94cf 8ebe b44e bfbe ab86 413f

lstm.bias_ih_l1 f4 [400]
0.12075446 0.3291406 0.15870693 0.25553337 -0.27534837 -0.21387802 0.5613802 0.46853328
-0.052539125 -0.07010739 0.31288996 0.3128943 0.61727417 0.20361477 -0.0011140752 0.15051728
-0.3226314 -0.54042643 -0.364374 -0.05696596 0.22486691 0.16106936 0.8763343 0.40442044
0.21642634 0.57794595 0.32181635 0.020121122 0.64286417 -0.30615672 0.20694509 0.47087556
0.030380685 0.21107095 0.60571206 -0.1377731 0.3120176 0.3967994 0.6479108 0.31710204
0.14996713 -0.15068142 -0.096754156 -0.21044067 0.13601553 0.542272 0.18281345 0.34292084
0.29183242 -0.07521988 0.5710352 0.066885315 0.12523422 0.636906 0.15084615 0.37503713
0.12039254 0.21278194 0.33030683 0.21073073 0.009498522 0.17794988 -0.032431636 0.18122284
0.07738806 -0.21925521 0.15562083 -0.123630784 0.27953392 0.055345625 0.51808524 -0.29443705
-0.35255715 -0.15935755 -0.5412068 0.3908715 0.69762784 0.2671275 0.0686134 -0.10381485
-0.23108047 0.46312296 0.2557968 0.251295 0.24823053 0.19741018 0.016687756 -0.19396423
0.053073406 -0.16049436 0.16221583 -0.2010056 0.32266676 0.38879302 0.3397979 -0.083663434
0.6625389 0.25848097 -0.67179286 0.20961827 0.20038769 0.03520524 0.23310289 -0.003964603
-0.35058782 -0.38074654 0.27366847 1.3888804 -0.41229886 0.18068035 0.06131049 0.03027408
0.044279534 -0.29311258 0.19349843 0.08351583 -0.0027239602 0.201148 0.14403601 0.4593694
0.2688474 0.41909373 -0.010798038 0.6634415 0.38202178 0.2649365 0.20620988 0.3798341
0.33107674 0.3370789 -0.13072112 0.8148763 0.071800485 0.40955544 0.7952243 -0.011937045
0.14947297 -0.34997413 -0.14286536 0.10174462 0.22538026 -0.0006800583 0.17284751 -0.020777205
-0.05340514 0.012727912 0.26683077 0.43167117 0.20576885 -0.018166194 -0.4412939 -0.21054953
-0.15410611 0.17756628 0.24189423 0.043571267 0.0012137085 0.11071824 0.55353504 0.43095917
0.28626606 0.3693829 0.11015403 0.7388309 0.36245844 0.21656792 0.4928944 0.2608526
0.50439066 0.737036 0.4050001 0.004376157 0.20381172 -0.26677993 -0.18719271 0.46759313
0.28629473 0.0091545535 0.16368815 0.2291842 0.33458042 0.3019919 0.06346884 0.35345528
0.3055174 0.12464578 0.5129516 -0.034236215 0.5881203 0.35822815 0.3361511 0.32411894
0.089542925 0.5521574 -0.11825847 0.20975734 0.35227257 0.12205914 -0.27020302 0.39880067
-0.29399788 -0.062611215 -0.12221493 -0.0669551 0.07007654 0.14752656 0.1491252 0.08663571
-0.3430052 0.6134919 0.2510337 -0.1792098 0.23107816 -0.38550627 0.0037042748 0.343206
0.0631021 0.14237839 0.39019617 -0.061740045 -0.07398092 0.15740156 0.120567285 -0.5750613
-0.02306468 0.08644539 0.3672915 -0.8014954 -0.048873533 -0.09477402 -0.40490055 0.4448841
-0.17455235 0.18724845 -0.26222786 -0.0675468 -0.3030978 0.017650336 0.15504842 0.39400333
-0.29624557 -0.17276207 0.10295228 0.4406287 -0.51099026 -0.34340796 0.01430106 0.20763677
-0.04143245 0.108533226 -0.6940942 0.20007075 0.17554057 0.74763596 -0.30110142 0.34442204
00000000: 1d4e f73d 1e85 a83e 1284 223e 45d5 823e
00000010: 76fa 8cbe d702 5bbe 9db6 0f3f 98e3 ef3e
00000020: 4433 57bd 7794 8fbd 1d33 a03e af33 a03e
00000030: ae05 1e3f 6480 503e 2906 92ba 3421 1a3e
00000040: f12f a5be 6359 0abf 3b8f babe 2355 69bd
00000050: 8343 663e 5eef 243e 7257 603f 3210 cf3e
00000060: de9e 5d3e 44f4 133f 1dc5 a43e 0dd5 a43c
00000070: bf92 243f 93c0 9cbe 6ae9 533e 9a16 f13e
00000080: eae0 f83c fc22 583e f20f 1b3f 6414 0dbe
00000090: c5c0 9f3e 4a29 cb3e 7bdd 253f 335b a23e
000000a0: fc90 193e 3b4c 1abe 0b27 c6bd c27d 57be
000000b0: a847 0b3e 56d2 0a3f 7333 3b3e 5293 af3e
000000c0: 0f6b 953e e10c 9abd 5d2f 123f 2bfb 883d
000000d0: 663d 003e 460c 233f 6a77 1a3e de04 c03e
000000e0: 5d90 f63d 82e3 593e fa1d a93e ccc9 573e
000000f0: b09f 1b3c 7e38 363e 09d7 04bd 7b92 393e
00000100: a27d 9e3d 7084 60be 115b 1f3e 2332 fdbd
00000110: 121f 8f3e 18b2 623d 3ca1 043f 74c0 96be
00000120: 5f82 b4be a02e 23be 878c 0abf 4f20 c83e
00000130: bd97 323f f0c4 883e 2f85 8c3d e19c d4bd
00000140: 5ca0 6cbe 741e ed3e ccf7 823e bda9 803e
00000150: 2530 7e3e e525 4a3e c3b4 883c 8f9e 46be
00000160: 8063 593d a258 24be e81b 263e 69d4 4dbe
00000170: 9434 a53e e10f c73e fef9 ad3e bc57 abbd
00000180: 269c 293f 9e57 843e 9efa 2bbf 2ca6 563e
00000190: 6e32 4d3e 5f33 103d 86b2 6e3e 80e9 81bb
000001a0: 3f80 b3be 36f1 c2be 461e 8c3e d5c6 b13f
000001b0: d618 d3be 4504 393e b520 7b3d 5901 f83c
000001c0: 755e 353d da12 96be 7424 463e 590a ab3d
000001d0: 7884 32bb bef9 4d3e 2d7e 133e 7732 eb3e
000001e0: 5ea6 893e 7493 d63e 41ea 30bc 4dd7 293f
000001f0: 5c98 c33e c2a5 873e af28 533e 9d79 c23e
00000200: e482 a93e 9b95 ac3e c2db 05be bc9b 503f
00000210: 220c 933d 40b1 d13e d293 4b3f 9893 43bc
00000220: 710f 193e cf2f b3be 4c4b 12be 7c5f d03d
00000230: 15ca 663e f145 32ba f0fe 303e f534 aabc
00000240: 59bf 5abd bb88 503c 0b9e 883e 0104 dd3e
00000250: 12b5 523e 45d1 94bc 46f1 e1be 4c9a 57be
00000260: fecd 1dbe efd3 353e 1fb3 773e c977 323d
00000270: 4d15 9f3a 3fc0 e23d 79b4 0d3f aea6 dc3e
00000280: 7791 923e c11f bd3e 7098 e13d 0624 3d3f
00000290: 2794 b93e fbc3 5d3e a85c fc3e 798e 853e
000002a0: bf1f 013f 64ae 3c3f 2c5c cf3e de65 8f3b
000002b0: 05b4 503e 6197 88be 72af 3fbe 5e68 ef3e
000002c0: 3995 923e fbfc 153c de9d 273e 43af 6a3e
000002d0: 204e ab3e af9e 9a3e f4fb 813d 17f8 b43e
000002e0: c76c 9c3e 4946 ff3d cc50 033f 463b 0cbd
000002f0: 0d8f 163f ae69 b73e ff1b ac3e ebf2 a53e
00000300: 4862 b73d 305a 0d3f 7f31 f2bd a1ca 563e
00000310: 125d b43e 24fa f93d 0d58 8abe 9a2f cc3e
00000320: e486 96be 4f3a 80bd d24b fabd c11f 89bd
00000330: 4a84 8f3d 3411 173e 47b4 183e 106e b13d
00000340: 619e afbe ce0d 1d3f 7d87 803e c682 37be
00000350: c19f 6c3e 1461 c5be 6bc3 723b b2b8 af3e
00000360: ac3b 813d a4cb 113e cbc7 c73e 21e3 7cbd
00000370: 4f83 97bd e02d 213e fbeb f63d 3837 13bf
00000380: 24f2 bcbc 480a b13d a20d bc3e cd2e 4dbf
00000390: 9d2f 48bd e218 c2bd 204f cfbe d9c7 e33e
000003a0: dabd 32be 0fbe 3f3e bb42 86be fa55 8abd
000003b0: a32f 9bbe 7097 903c 03c5 1e3e ceba c93e
000003c0: 80ad 97be 8ae8 30be a5d8 d23d 169a e13e
000003d0: 42d0 02bf 2bd3 afbe fe4e 6a3c bc9e 543e
000003e0: 13b5 29bd ab46 de3d 28b0 31bf 59df 4c3e
000003f0: e8c0 333e 1265 3f3f f729 9abe 1658 b03e

lstm.bias_hh_l1 f4 [400]
0.29370546 0.3412564 0.22270618 0.10506957 -0.27269876 -0.33331951 0.48276812 0.5365895
-0.15170081 -0.09471461 0.2576662 0.50590247 0.4459153 0.1646057 -0.1326 0.13248102
-0.37524644 -0.4396113 -0.26031917 -0.13548858 0.18594857 0.2155062 0.8253768 0.2945903
0.29040918 0.5616923 0.40061107 0.08267774 0.76461136 -0.19836535 0.045766123 0.45920762
-0.11983526 0.13615054 0.5434567 -0.0946217 0.17820425 0.3026885 0.5867728 0.28319392
0.24703214 -0.086747594 -0.07544628 -0.2051152 0.033976085 0.44660866 0.1316741 0.39529553
0.3168758 -0.11841514 0.63090235 -0.04062908 0.15604627 0.5541242 0.16131097 0.37877837
-0.016002065 0.16698082 0.41603038 0.15534404 -0.041428544 0.22425435 -0.042454507 0.11632534
0.07040978 -0.2585198 0.16412175 -0.11441159 0.4183896 0.077551365 0.5066204 -0.2634577
-0.16200167 -0.16787924 -0.5565778 0.45321098 0.650175 0.34602466 0.05655605 -0.22764076
-0.25883466 0.52654886 0.36514726 0.3134129 0.18449637 0.17482337 -0.032647893 -0.26209193
0.22955953 -0.20339201 -0.0053434577 -0.19891652 0.35128242 0.3865204 0.21752979 -0.033240538
0.65000135 0.24006106 -0.5667159 0.23386014 0.3321337 0.0007850336 0.14587069 0.0926563
-0.2948644 -0.41710106 0.22936358 1.4143593 -0.36468312 0.07255781 -0.05656555 0.013565489
0.1267453 -0.19761916 0.27508125 0.12827508 -0.0070368196 0.22834201 0.23413381 0.47829154
0.31439453 0.40334246 0.0710907 0.63251173 0.3642477 0.30732584 0.16181563 0.36980075
0.43761253 0.20647392 -0.12236704 0.782541 0.03595754 0.31114823 0.81750697 0.06526247
0.09323953 -0.21207584 -0.16130039 0.21997325 0.33896273 -0.057511795 0.33850396 -0.120153196
-0.08479893 0.0071216756 0.37449247 0.27194852 0.14271262 -0.03603495 -0.47248694 -0.2133726
-0.13101825 0.0894615 0.3466811 0.20161985 0.020340402 -0.018891407 0.6515096 0.3353819
0.11236844 0.5069995 0.09103652 0.6678582 0.39430472 0.40225175 0.39011964 0.33676285
0.44287336 0.6980182 0.33105585 -0.063441865 0.3325394 -0.21803412 -0.25001153 0.49786708
0.22662827 0.19245405 0.075321056 0.17262284 0.37089056 0.37343022 0.15153511 0.41060996
0.4647713 0.19136424 0.40524703 -0.11961432 0.6678309 0.31638697 0.47448704 0.16032608
0.15571813 0.60315037 -0.24084434 0.25585234 0.25935516 0.13687794 -0.26923004 0.5400588
-0.36892486 -0.038541336 0.03487549 -0.047116246 -0.009905319 0.17451032 0.12587507 0.115811735
-0.30596793 0.50677365 0.38913748 -0.19655874 0.20853592 -0.34985575 -0.016441092 0.34782284
0.028260188 0.069201134 0.3859717 -0.011219028 -0.048903376 0.08329645 0.13582061 -0.486464
-0.02682767 -0.054554354 0.31310803 -0.85637546 -0.14163093 -0.041799475 -0.433401 0.4408587
-0.23507306 0.32595065 -0.18355326 -0.08238544 -0.2698393 -0.02930318 0.017092124 0.34464833
-0.19079179 -0.11063086 0.02198139 0.43538857 -0.59679323 -0.28736177 0.04187512 0.14757122
0.058043256 0.16204295 -0.6368439 0.26080608 0.024875069 0.7510516 -0.21406657 0.29698965
00000000: 9060 963e 29b9 ae3e 170d 643e b72e d73d
00000010: 2c9f 8bbe dba8 aabe 622d f73e ee5d 093f
00000020: 7557 1bbe bcf9 c1bd d3ec 833e d382 013f
00000030: 034f e43e 668e 283e 4bc8 07be 1ba9 073e
00000040: 4d20 c0be bb14 e1be 8e48 85be 85bd 0abe
00000050: 4d69 3e3e a8ad 5c3e e54b 533f 8ad4 963e
00000060: 83b0 943e 11cb 0f3f e51c cd3e f252 a93d
00000070: 92bd 433f 4920 4bbe 4275 3b3d 431d eb3e
00000080: 306c f5bd 0c6b 0b3e fa1f 0b3f 06c9 c1bd
00000090: 2d7b 363e fdf9 9a3e be36 163f cbfe 903e
000000a0: fef5 7c3e b9a8 b1bd 9483 9abd b809 52be
000000b0: 822a 0b3d e4a9 e43e 93d5 063e 2d64 ca3e
000000c0: 8b3d a23e a383 f2bd d182 213f ae6a 26bd
000000d0: 98ca 1f3e 15db 0d3f b42e 253e 3def c13e
000000e0: c316 83bc 05fd 2a3e ef01 d53e 8212 1f3e
000000f0: fab0 29bd efa2 653e c7e4 2dbd fb3b ee3d
00000100: 0133 903d b55c 84be 880f 283e a050 eabd
00000110: 2937 d63e 40d3 9e3d e0b1 013f ede3 86be
00000120: c4e3 25be 89e8 2bbe e27b 0ebf 450b e83e
00000130: de71 263f 252a b13e 51a7 673d a91a 69be
00000140: fa85 84be e8cb 063f 95f4 ba3e a877 a03e
00000150: 9eec 3c3e e604 333e ccb9 05bd ea30 86be
00000160: a711 6b3e ff45 50be 2c18 afbb c6b0 4bbe
00000170: 4adb b33e 00e6 c53e 21c0 5e3e 3b27 08bd
00000180: 7d66 263f 91d2 753e 4b14 11bf 0879 6f3e
00000190: 6e0d aa3e b7ca 4d3a 205f 153e 96c2 bd3d
000001a0: 77f8 96be 458e d5be 49de 6a3e ba09 b53f
000001b0: bfb7 babe 3099 943d 47b1 67bd c941 5e3c
000001c0: 85c9 013e ad5c 4abe 73d7 8c3e 8b5a 033e
000001d0: 1f95 e6bb 7dd2 693e c6c0 6f3e a1e2 f43e
000001e0: 52f8 a03e e782 ce3e 0098 913d 4aec 213f
000001f0: ad7e ba3e d059 9d3e ffb2 253e 8656 bd3e
00000200: c00e e03e e66d 533e 929b fabd 9b54 483f
00000210: 3748 133d d24e 9f3e 2348 513f 54a8 853d
00000220: 5ef4 be3d 692a 59be ee2b 25be ab40 613e
00000230: 868c ad3e 7d91 6bbd 6450 ad3e e112 f6bd
00000240: 10ab adbd f25c e93b 7abd bf3e d63c 8b3e
00000250: 4223 123e 6299 13bd cfe9 f1be 597e 5abe
00000260: a629 06be 9737 b73d 2f80 b13e 6f75 4e3e
00000270: eaa0 a63c 27c2 9abc 55c9 263f 2db7 ab3e
00000280: 6d21 e63d b8ca 013f 5b71 ba3d c1f8 2a3f
00000290: 4fe2 c93e f1f3 cd3e c3bd c73e 2e6c ac3e
000002a0: 4cc0 e23e 52b1 323f 2780 a93e cfed 81bd
000002b0: 9b42 aa3e 5644 5fbe 8301 80be 6fe8 fe3e
000002c0: 3e11 683e ad12 453e ed41 9a3d 0bc4 303e
000002d0: 5ee5 bd3e 3f32 bf3e 052c 1b3e 783b d23e
000002e0: 81f6 ed3e fdf4 433e 8a7c cf3e 5af8 f4bd
000002f0: f7f6 2a3f 79fd a13e f7ef f23e 852c 243e
00000300: 9374 1f3e 1068 1a3f e69f 76be 14ff 823e
00000310: 33ca 843e bb29 0c3e 85d8 89be 4b41 0a3f
00000320: b8e3 bcbe 85dd 1dbd 9ad9 0e3d f7fc 40bd
00000330: eb49 22bc d5b2 323e 65e5 003e b42e ed3d
00000340: d4a7 9cbe ebbb 013f 073d c73e b246 49be
00000350: 718a 553e 4b20 b3be 78af 86bc d615 b23e
00000360: e981 e73c 53b9 8d3d 159e c53e 04d0 37bc
00000370: e84e 48bd 5497 aa3d 8f14 0b3e cf11 f9be
00000380: b4c5 dbbc 6374 5fbd b24f a03e 6c3b 5bbf
00000390: b307 11be ed35 2bbd bce6 ddbe 3bb8 e13e
000003a0: feb6 70be 01e3 a63e 63f5 3bbe b3b9 a8bd
000003b0: 6028 8abe 390d f0bc c804 8c3c bf75 b03e
000003c0: ec5e 43be 6f92 e2bd 5112 b43c 40eb de3e
000003d0: 71c7 18bf 1521 93be 3f85 2b3d e91c 173e
000003e0: c4be 6d3d 96ee 253e 3408 23bf 6088 853e
000003f0: cdc6 cb3c eb44 403f 4434 5bbe 070f 983e
